…
Going to REMOVE and CREATE directory: /home/mdabdullahal.alamin/alamin/face_mask/model_output/simulated/batch_jobs/Baseline_model_2
Creating directory /home/mdabdullahal.alamin/alamin/face_mask/model_output/simulated/batch_jobs/Baseline_model_2.
Model summary has been saved to file: /home/mdabdullahal.alamin/alamin/face_mask/model_output/simulated/batch_jobs/Baseline_model_2/model_summary.txt
Model: "Baseline_1VGG_dropout"
_________________________________________________________________
Layer (type)                 Output Shape              Param #   
=================================================================
batch_normalization (BatchNo (None, 128, 128, 3)       12        
_________________________________________________________________
conv2d (Conv2D)              (None, 128, 128, 32)      896       
_________________________________________________________________
max_pooling2d (MaxPooling2D) (None, 64, 64, 32)        0         
_________________________________________________________________
dropout (Dropout)            (None, 64, 64, 32)        0         
_________________________________________________________________
flatten (Flatten)            (None, 131072)            0         
_________________________________________________________________
dense (Dense)                (None, 128)               16777344  
_________________________________________________________________
dropout_1 (Dropout)          (None, 128)               0         
_________________________________________________________________
dense_1 (Dense)              (None, 2)                 258       
=================================================================
Total params: 16,778,510
Trainable params: 16,778,504
Non-trainable params: 6
_________________________________________________________________
2021-11-26 14:48:09.760033: W tensorflow/stream_executor/gpu/asm_compiler.cc:63] Running ptxas --version returned 256
2021-11-26 14:48:09.796154: W tensorflow/stream_executor/gpu/redzone_allocator.cc:314] Internal: ptxas exited with non-zero error code 256, output: 
…
