…
Creating directory /home/mdabdullahal.alamin/alamin/face_mask/model_output/simulated/batch_jobs/VGG19.
Model summary has been saved to file: /home/mdabdullahal.alamin/alamin/face_mask/model_output/simulated/batch_jobs/VGG19/model_summary.txt
Model: "vgg19"
_________________________________________________________________
Layer (type)                 Output Shape              Param #   
=================================================================
input_1 (InputLayer)         [(None, 128, 128, 3)]     0         
_________________________________________________________________
block1_conv1 (Conv2D)        (None, 128, 128, 64)      1792      
_________________________________________________________________
block1_conv2 (Conv2D)        (None, 128, 128, 64)      36928     
_________________________________________________________________
block1_pool (MaxPooling2D)   (None, 64, 64, 64)        0         
_________________________________________________________________
block2_conv1 (Conv2D)        (None, 64, 64, 128)       73856     
_________________________________________________________________
block2_conv2 (Conv2D)        (None, 64, 64, 128)       147584    
_________________________________________________________________
block2_pool (MaxPooling2D)   (None, 32, 32, 128)       0         
_________________________________________________________________
block3_conv1 (Conv2D)        (None, 32, 32, 256)       295168    
_________________________________________________________________
block3_conv2 (Conv2D)        (None, 32, 32, 256)       590080    
_________________________________________________________________
block3_conv3 (Conv2D)        (None, 32, 32, 256)       590080    
_________________________________________________________________
block3_conv4 (Conv2D)        (None, 32, 32, 256)       590080    
_________________________________________________________________
block3_pool (MaxPooling2D)   (None, 16, 16, 256)       0         
_________________________________________________________________
block4_conv1 (Conv2D)        (None, 16, 16, 512)       1180160   
_________________________________________________________________
block4_conv2 (Conv2D)        (None, 16, 16, 512)       2359808   
_________________________________________________________________
block4_conv3 (Conv2D)        (None, 16, 16, 512)       2359808   
_________________________________________________________________
block4_conv4 (Conv2D)        (None, 16, 16, 512)       2359808   
_________________________________________________________________
block4_pool (MaxPooling2D)   (None, 8, 8, 512)         0         
_________________________________________________________________
block5_conv1 (Conv2D)        (None, 8, 8, 512)         2359808   
_________________________________________________________________
block5_conv2 (Conv2D)        (None, 8, 8, 512)         2359808   
_________________________________________________________________
block5_conv3 (Conv2D)        (None, 8, 8, 512)         2359808   
_________________________________________________________________
block5_conv4 (Conv2D)        (None, 8, 8, 512)         2359808   
_________________________________________________________________
block5_pool (MaxPooling2D)   (None, 4, 4, 512)         0         
_________________________________________________________________
flatten (Flatten)            (None, 8192)              0         
_________________________________________________________________
fc1 (Dense)                  (None, 4096)              33558528  
_________________________________________________________________
fc2 (Dense)                  (None, 4096)              16781312  
_________________________________________________________________
predictions (Dense)          (None, 2)                 8194      
=================================================================
Total params: 70,372,418
Trainable params: 70,372,418
Non-trainable params: 0
_________________________________________________________________
2021-11-26 14:48:10.059863: W tensorflow/stream_executor/gpu/asm_compiler.cc:63] Running ptxas --version returned 256
2021-11-26 14:48:10.095379: W tensorflow/stream_executor/gpu/redzone_allocator.cc:314] Internal: ptxas exited with non-zero error code 256, output: 
…
